SimpleNeuralNetwork/models/NNOneHiddenLayerlr0.001batch64epochs3.pth (torch, 409536 bytes, 4 tensors)

fc1.weight f4 [128, 784]
0.019365145 0.020399427 0.008685688 -0.015570216 -0.03280393 0.02660636 0.010420294 0.022665353
-0.013465831 -0.033636473 0.027585244 0.031353194 0.058556028 0.0647845 0.055141922 0.008721316
0.035339065 0.007743159 0.02979491 0.02167586 -0.015395369 0.005250991 0.024448844 0.03150235
-0.012013095 0.007571838 -0.011379528 -0.004132169 -0.030720623 -0.017239643 -0.010169992 0.0136712715
-0.0033408112 0.066409156 0.090169445 0.07728241 0.06742575 0.0162775 0.05804382 0.008698862
-0.0068594194 0.0042073745 -0.046331618 0.036075745 0.0038943305 -0.023954721 0.014192572 0.09717242
0.05758218 0.038982544 0.08548516 0.032439347 0.013490643 -0.01359769 0.012105099 -0.0017802631
0.013116283 -0.02435154 0.037620824 -0.021470502 -0.05068689 0.10870146 0.17384355 0.13405782
0.24031885 0.2467181 0.21574575 0.18698414 0.1501157 0.07803518 0.09751151 0.09467885
0.14152661 0.10710412 0.11494817 0.07658309 0.107451595 0.13058516 0.10948197 0.13876343
0.07881059 0.07698997 0.013461404 -0.035106733 0.03451964 0.0337981 -0.07780833 -0.017575352
0.0034043223 0.04640795 0.07308352 0.023406034 0.04340098 0.10980225 0.06627923 0.051989947
0.028476518 0.087105386 0.012171726 0.07226564 0.03300382 -0.046555787 -0.029971084 0.014504522
0.017994495 0.09784577 0.1349322 0.058652773 0.09581441 0.0503796 0.02531213 -0.021168493
-0.03105509 -0.07546697 -0.046547245 -0.034033347 -0.051385894 0.06077716 0.068052694 0.067380145
0.08050731 0.10072287 0.05934872 0.06113955 0.09550272 0.071497984 -0.019889774 -0.01981082
-0.07650451 -0.08307881 -0.05018351 -0.0008873038 -0.005741176 -0.058261245 -0.062039983 0.017229026
0.10273093 0.03356502 -0.0052151983 0.03363402 -0.022108382 -0.023903375 0.03845076 0.022496948
0.002151326 0.07691395 0.035924517 0.07261288 0.11761685 0.07795095 0.055264965 0.058633592
0.050017476 -0.024387082 -0.022297481 0.027439453 0.012373887 -0.070469856 -0.0747745 -0.07576842
-0.04329426 -0.117919214 -0.091215126 -0.009205397 0.06409247 0.007239251 0.018426701 0.07494411
0.007915727 -0.017980283 -0.038821302 -0.026497694 -0.06851967 -0.05171936 -0.014955429 -0.0031744982
-0.012286665 -0.043206446 -0.003966736 -0.013424313 -0.0200576 -0.05544888 -0.08336577 -0.0021363061
0.038241804 -0.011309249 -0.08635421 -0.1241176 -0.10101041 -0.10545778 -0.15264122 -0.106800504
-0.039833415 0.031097393 0.09510186 0.03269123 0.001971364 -0.011211774 -0.022196587 -0.14078276
-0.13850446 -0.11498792 -0.013879967 -0.013204157 -0.050889265 -0.062521845 0.011877466 0.006114916
-0.059689276 -0.078321055 0.008482187 -0.044576958 -0.014144372 0.00798302 -0.047334757 -0.13140069
-0.09822983 -0.09188205 -0.13117336 -0.21688986 -0.08348267 -0.02989923 0.023341935 0.0715454
0.024913697 0.03999217 -0.030836988 -0.09835697 -0.114909045 -0.079328135 -0.0068798 -0.034174718
-0.04699396 -0.0171843 -0.009141592 -0.029474936 -0.029332325 -0.0046568904 -0.01621088 0.03312138
-0.05711761 -0.050894085 -0.11666457 -0.0671769 -0.06462605 -0.080090344 -0.068276785 -0.13383932
-0.14227356 -0.027576363 -0.091856055 0.01941403 0.012352571 -0.0056754616 -0.02131303 -0.06567097
00000000: a7a3 9e3c b31c a73c 6a4e 0e3c 381a 7fbc
00000010: 6a5d 06bd 95f5 d93c e1b9 2a3c b1ac b93c
00000020: ca9f 5cbc 66c6 09bd 73fa e13c 356c 003d
00000030: 72d8 6f3d bcad 843d 7fdc 613d dae3 0e3c
00000040: b2bf 103d 53ba fd3b 7514 f43c 9391 b13c
00000050: dc3c 7cbc 8110 ac3b f148 c83c 9c08 013d
00000060: 93d2 44bc 2e1d f83b 3371 3abc 2567 87bb
00000070: d1a9 fbbc 273a 8dbc 0aa0 26bc 78fd 5f3c
00000080: 83f1 5abb 8601 883d c2aa b83d 3d46 9e3d
00000090: 8316 8a3d 6458 853c 5bbf 6d3d ac85 0e3c
000000a0: fbc4 e0bb 04de 893b 39c6 3dbd 29c4 133d
000000b0: 0638 7f3b b13c c4bc f687 683c 5502 c73d
000000c0: 4bdb 6b3d 29ac 1f3d d812 af3d 1fdf 043d
000000d0: dc07 5d3c d8c8 5ebc 7754 463c b857 e9ba
000000e0: aee5 563c e17c c7bc 4b18 1a3d e8e2 afbc
000000f0: 0e9d 4fbd df9e de3d 0b04 323e 7446 093e
00000100: 2516 763e aba3 7c3e 74ec 5c3e c578 3f3e
00000110: eeb7 193e e9d0 9f3d 1db4 c73d fce6 c13d
00000120: 5aec 103e 6859 db3d f269 eb3d 98d7 9c3d
00000130: 950f dc3d 1eb8 053e 1538 e03d 0018 0e3e
00000140: 7267 a13d ebac 9d3d 388d 5c3c 14cc 0fbd
00000150: 7764 0d3d e06f 0a3d f959 9fbd 2ffa 8fbc
00000160: 0d1b 5f3b 4316 3e3d d0ac 953d 03be bf3c
00000170: 3ac5 313d 01e0 e03d 68bd 873d 69f3 543d
00000180: 9647 e93c 4f64 b23d eb6b 473c 0200 943d
00000190: 032f 073d 48b1 3ebd eb85 f5bc 60a4 6d3c
000001a0: 3169 933c 5d63 c83d ab2b 0a3e e43d 703d
000001b0: 583a c43d d75a 4e3d 625b cf3c 8c69 adbc
000001c0: 3e67 febc 6d8e 9abd 53a8 3ebd 8d66 0bbd
000001d0: 047a 52bd 79f1 783d 365f 8b3d 9afe 893d
000001e0: 04e1 a43d cb47 ce3d a517 733d 776d 7a3d
000001f0: ee96 c33d 896d 923d e1ef a2bc 4d4a a2bc
00000200: 66ae 9cbd 3925 aabd 398d 4dbd f399 68ba
00000210: 7a20 bcbb 58a3 6ebd a31d 7ebd e323 8d3c
00000220: 9864 d23d 797b 093d 41e4 aabb d3c3 093d
00000230: a31c b5bc 03d1 c3bc 8b7e 1d3d 854b b83c
00000240: 43fd 0c3b 1085 9d3d 9625 133d 10b6 943d
00000250: 1ae1 f03d bfa4 9f3d 845d 623d c729 703d
00000260: 20df 4c3d 6bc7 c7bc 35a9 b6bc b4c8 e03c
00000270: d8bb 4a3c 8052 90bd 6023 99bd 792c 9bbd
00000280: 5255 31bd a17f f1bd ffce babd 3cd2 16bc
00000290: ea42 833d 3d37 ed3b 98f3 963c 4c7c 993d
000002a0: f7b0 013c 634b 93bc 1603 1fbd b111 d9bc
000002b0: 0a54 8cbd aed7 53bd 9e07 75bc 3e0b 50bb
000002c0: 024e 49bc 3ef9 30bd 65fb 81bb a6f1 5bbc
000002d0: d64f a4bc 5d1e 63bd acbb aabd 4501 0cbb
000002e0: 70a3 1c3d 6e4a 39bc 7ada b0bd 5e31 febd
000002f0: 8cde cebd 40fa d7bd fb4d 1cbe 39ba dabd
00000300: 5d28 23bd f6bf fe3c c4c4 c23d 3de7 053d
00000310: 0032 013b 97b1 37bc 9ed5 b5bc 5b29 10be
00000320: 1dd4 0dbe c97e ebbd cd68 63bc 4056 58bc
00000330: 4371 50bd 740b 80bd b499 423c a25f c83b
00000340: be7c 74bd ca66 a0bd dff8 0a3c 5496 36bd
00000350: ccbd 67bc 36cb 023c 17e2 41bd e78d 06be
00000360: b92c c9bd a82c bcbd 4f52 06be 6018 5ebe
00000370: f6f8 aabd 3bef f4bc 9637 bf3c 6586 923d
00000380: cf17 cc3c d4ce 233d da9d fcbc 616f c9bd
00000390: 6f55 ebbd ca76 a2bd f26f e1bb cafa 0bbd
000003a0: bd7c 40bd 17c6 8cbc 9ec6 15bc 6c75 f1bc
000003b0: 584a f0bc d498 98bb aecc 84bc 49aa 073d
000003c0: 28f4 69bd 5176 50bd d6ed eebd 0b94 89bd
000003d0: aa5a 84bd 6806 a4bd b3d4 8bbd 2d0d 09be
000003e0: 29b0 11be d3e7 e1bc 071f bcbd 2c0a 9f3c
000003f0: 7062 4a3c 39f9 b9bb aa98 aebc 807e 86bd

fc1.bias f4 [128]
0.10848706 0.07599513 0.115503244 0.082392596 0.08000032 -0.0037634058 -0.027973348 -0.114618585
-0.07981583 0.051503297 -0.017330946 0.190246 -0.07200294 0.025832344 -0.0072561884 0.05987224
-0.02898199 -0.011304266 0.09331359 -0.10580974 -0.015825976 0.09075657 0.021407446 0.07135405
-0.010454881 0.104659155 -0.0022731714 0.14028472 0.005083091 -0.09968257 0.012426693 -0.021330453
0.04286858 -0.03275636 0.1535388 0.06786895 -0.0042791734 0.13165186 -0.035495326 0.14257075
0.042083237 -0.04577847 -0.049926344 -0.025175964 0.06340286 -0.0023041035 0.056161992 -0.056663066
0.091361195 -0.024490869 0.008097133 0.020322753 0.0075839083 0.112881035 0.14646898 0.08347862
0.026019454 0.14899628 -0.044466373 -0.027798727 0.079694174 0.06426498 0.07825802 0.002460587
0.14186639 0.04801405 0.09219097 0.1298745 -0.027427979 0.163293 0.089606784 0.07468948
-0.055873834 0.036417145 0.050521202 0.04123848 -0.015498614 0.0073451865 -0.020262737 0.008873904
0.027376102 -0.013476654 0.078378506 0.13599136 -0.0958178 0.1543542 0.018459717 0.047820166
-0.12772673 -0.0071659028 0.17581576 0.12482855 -0.022143785 0.015571103 -0.107271336 -0.012021171
-0.02599453 0.022106167 -0.114113234 -0.099543475 0.14781964 -0.042781215 -0.04000885 0.051215626
0.0007303125 -0.050633304 0.16155681 0.032112665 -0.026248507 0.05671193 -0.02674471 0.060768634
0.008473968 0.13597088 0.032034613 0.15244068 0.008654057 0.066957004 0.05313714 -0.02728684
-0.07014374 -0.0363945 0.055016834 -0.008857121 -0.10347834 0.0034800894 -0.09114492 -0.013519571
00000000: 772e de3d 56a3 9b3d f78c ec3d 73bd a83d
00000010: 35d7 a33d 79a3 76bb 5d28 e5bc 26bd eabd
00000020: 7b76 a3bd 1ff5 523d a1f9 8dbc d9cf 423e
00000030: 4776 93bd 5a9e d33c 52c5 edbb 983c 753d
00000040: a36b edbc 8735 39bc 321b bf3d c7b2 d8bd
00000050: 7aa5 81bc 95de b93d ab5e af3c 1222 923d
00000060: f34a 2bbc 8a57 d63d 7df9 14bb cca6 0f3e
00000070: 0f90 a63b 6026 ccbd 5499 4b3c 34bd aebc
00000080: f796 2f3d 882b 06bd 4639 1d3e e0fe 8a3d
00000090: 4f38 8cbb bfcf 063e 8c63 11bd 11fe 113e
000000a0: 795f 2c3d 3482 3bbd 917f 4cbd d33d cebc
000000b0: 5cd9 813d 7100 17bb 1e0a 663d 8817 68bd
000000c0: 941b bb3d 13a1 c8bc d6a9 043c e77b a63c
000000d0: 6f82 f83b 2c2e e73d f7fb 153e d7f6 aa3d
000000e0: c026 d53c 7b92 183e 5f22 36bd 28ba e3bc
000000f0: b336 a33d 5c9d 833d be45 a03d cd41 213b
00000100: 6c45 113e 61aa 443d 9fce bc3d d2fd 043e
00000110: a4b0 e0bc 4836 273e c383 b73d ccf6 983d
00000120: f6db 64bd 252a 153d 52ef 4e3d aee9 283d
00000130: e6ed 7dbc e4af f03b 0afe a5bc da63 113c
00000140: d943 e03c 2fcd 5cbc e984 a03d 5241 0b3e
00000150: 1f3c c4bd 070f 1e3e d538 973c 14df 433d
00000160: ccca 02be f3cf eabb 0c09 343e 1ca6 ff3d
00000170: e266 b5bc f11d 7f3c 13b1 dbbd 72f4 44bc
00000180: 7bf2 d4bc fe17 b53c 33b4 e9bd 73dd cbbd
00000190: 085e 173e 5b3b 2fbd 52e0 23bd 7ac7 513d
000001a0: 7172 3f3a de64 4fbd 266f 253e 9288 033d
000001b0: 1c07 d7bc c54a 683d b917 dbbc 88e8 783d
000001c0: 66d6 0a3c f33b 0b3e ba36 033d 6919 1c3e
000001d0: bfc9 0d3c c120 893d 54a6 593d a788 dfbc
000001e0: 85a7 8fbd 6612 15bd 5559 613d 751d 11bc
000001f0: 74ec d3bd 3612 643b 30aa babd 3181 5dbc

fcoutput.weight f4 [10, 128]
-0.26358497 -0.09013908 -0.25526822 -0.14729314 -0.15917133 -0.080202036 0.1575252 0.13493048
-0.23142697 -0.26872846 -0.38283575 -0.22544196 0.110276245 -0.24843358 -0.3308526 -0.07480303
0.13022436 -0.07809693 -0.15698335 -0.023086296 -0.10370298 -0.13792498 -0.12347842 0.1288509
0.050711334 -0.51700836 -0.06941056 0.118360415 0.12174486 -0.06879818 0.053075857 0.15696216
0.012341612 -0.12878759 -0.13254964 0.16900355 0.11644506 -0.06928234 -0.014108676 0.056639098
-0.20722674 0.1333817 -0.14898491 0.04776507 -0.33284977 -0.22711523 -0.01910978 0.05136646
0.16703242 0.15792513 -0.15558133 -0.09633034 -0.5320961 -0.07635233 0.14397416 -0.065881476
-0.3939803 0.10822355 0.025794934 -0.048265435 0.053567424 0.061626505 0.031313423 0.0077159684
0.16171768 0.13386923 -0.22112718 -0.23917419 0.030898761 0.08096069 -0.1548624 0.15285115
0.06669237 -0.08353075 -0.0100177135 0.10354229 -0.09757416 -0.21430643 0.17559655 0.1574849
0.12786238 -0.1875448 0.122975655 -0.17196509 -0.014368562 -0.22318089 0.04998998 0.14390832
0.09757954 -0.12579682 0.06224504 0.053082637 -0.03782095 -0.124254346 0.082198955 -0.06779224
-0.06959139 0.06885623 0.020834204 0.24539027 -0.04497179 0.07850014 -0.079290465 -0.11762693
0.07089814 -0.06315492 0.19668517 -0.03330853 -0.09004146 -0.26624537 -0.047598373 -0.13674718
0.13691974 -0.15007962 -0.2276765 0.044993527 -0.16777873 0.07983407 -0.10305603 0.08913198
0.18680066 0.02902068 0.11721909 0.031485457 -0.17362806 0.007108471 0.12844749 -0.18719465
0.041925542 0.29018483 0.084927015 -0.0064321086 -0.083256684 0.007723419 -0.49531016 -0.021946965
-0.100022286 0.22769257 0.07050511 0.058947623 0.089965306 0.1490454 0.010790417 0.12973003
-0.121119 0.09173781 -0.2003908 0.09187889 0.030443994 0.11704641 -0.09446298 -0.26041606
-0.2210581 0.2219454 0.0057838075 0.12939772 -0.26515177 0.098550625 0.043997534 -0.110192485
0.16199403 -0.21664482 -0.1625393 -0.2114352 0.044814 0.28141543 0.056901276 -0.27787676
0.17428511 -0.091353506 0.13885972 -0.2563938 -0.011586441 -0.15976556 -0.058890454 -0.14747371
-0.19694923 -0.091721036 -0.01803672 0.11946866 0.15547775 0.10033975 -0.008828061 0.21948273
-0.18711564 0.5106284 0.09424218 -0.065080896 0.35927078 -0.21866821 -0.29445544 0.32311317
0.15913318 -0.18155189 -0.008591779 0.15426593 -0.13589597 0.10108128 0.13369152 0.08818012
0.024033166 -0.10689687 0.14889336 -0.063677244 0.006642311 -0.06622349 -0.22002393 -0.101988085
-0.17982441 -0.13104804 -0.16826265 0.19799146 -0.22461197 0.019277856 0.12969701 -0.21888834
-0.23944241 0.15957364 0.118684486 -0.08579718 0.023936955 -0.20569314 -0.28593206 -0.20202103
-0.089116625 -0.28320912 0.00884926 -0.23175211 -0.161725 -0.16912448 -0.0034824866 0.17558095
-0.31219798 0.19153316 -0.06245127 -0.2208859 0.011877901 0.12992094 -0.1605931 0.15299574
0.13516979 -0.28003624 -0.050050378 -0.15960187 -0.24916135 -0.24808052 -0.040281843 0.03212492
-0.220279 -0.086264625 0.15222856 0.001141713 -0.0855544 -0.018865021 -0.15888323 0.13165791
00000000: 9cf4 86be d79a b8bd 84b2 82be 03d4 16be
00000010: cffd 22be f740 a4bd 494e 213e 372b 0a3e
00000020: 31fb 6cbe c796 89be 0c03 c4be 42da 66be
00000030: 83d8 e13d 5f65 7ebe 8365 a9be 5532 99bd
00000040: 8959 053e 49f1 9fbd 3ec0 20be 791f bdbc
00000050: 3a62 d4bd 353c 0dbe 41e2 fcbd 7ef1 033e
00000060: b0b6 4f3d a95a 04bf 2027 8ebd f266 f23d
00000070: 5f55 f93d 0fe6 8cbd 1266 593d b0ba 203e
00000080: 7934 4a3c e5e0 03be 18bb 07be 440f 2d3e
00000090: bf7a ee3d e6e3 8dbd 1428 67bc 66fe 673d
000000a0: 3f33 54be 3695 083e 808f 18be 4ea5 433d
000000b0: 496b aabe e590 68be 1d8c 9cbc a365 523d
000000c0: 8c0a 2b3e 20b7 213e b650 1fbe d748 c5bd
000000d0: 7337 08bf 9c5e 9cbd f66d 133e deec 86bd
000000e0: c9b7 c9be 4fa4 dd3d e64f d33c fab1 45bd
000000f0: 8469 5b3d 136c 7c3d 8142 003d 3cd6 fc3b
00000100: 5299 253e 0415 093e 2a6f 62be 14ea 74be
00000110: 661f fd3c b8ce a53d 4094 1ebe 0385 1c3e
00000120: 0296 883d 2b12 abbd 5621 24bc fb0d d43d
00000130: f6d4 c7bd 2573 5bbe 95cf 333e b943 213e
00000140: 5bee 023e be0b 40be a9da fb3d 9e17 30be
00000150: 1e6a 6bbc 8889 64be 4bc2 4c3d b45c 133e
00000160: c8d7 c73d e2d0 00be a8f4 7e3d 2e6d 593d
00000170: 24ea 1abd 1079 febd ed57 a83d a8d6 8abd
00000180: ee85 8ebd 7f04 8d3d 7eac aa3c 9647 7b3e
00000190: 5734 38bd aec4 a03d 0a63 a2bd 63e6 f0bd
000001a0: 0b33 913d 5e57 81bd d667 493e 866e 08bd
000001b0: a867 b8bd 5051 88be 83f6 42bd 7407 0cbe
000001c0: b034 0c3e 79ae 19be 0724 69be 224b 383d
000001d0: 30ce 2bbe 0b80 a33d 0a0f d3bd d48a b63d
000001e0: ac48 3f3e c7bc ed3c 9010 f03d e5f6 003d
000001f0: 8ecb 31be 2dee e83b bd87 033e f4af 3fbe
00000200: 1eba 2b3d 1b93 943e 37ee ad3d 70c4 d2bb
00000210: 7b82 aabd bc14 fd3b 4b99 fdbe 1fca b3bc
00000220: 7cd8 ccbd 3e28 693e fc64 903d 1073 713d
00000230: bb3f b83d 5b9f 183e 4aca 303c f3d7 043e
00000240: 3d0d f8bd 08e1 bb3d 3f33 4dbe 002b bc3d
00000250: af65 f93c 07b6 ef3d cf75 c1bd 4155 85be
00000260: 0e5d 62be a845 633e 1886 bd3b d680 043e
00000270: f9c1 87be e9d4 c93d c236 343d 99ac e1bd
00000280: c3e1 253e 24d8 5dbe b470 26be 7882 58be
00000290: e38e 373d af15 903e 5011 693d dd45 8ebe
000002a0: cc77 323e 8c17 bbbd 3e31 0e3e 0c46 83be
000002b0: 0ed5 3dbc 9599 23be 1e37 71bd 5903 17be
000002c0: 0fad 49be 3dd8 bbbd bec1 93bc fcab f43d
000002d0: 8f35 1f3e ed7e cd3d 92a3 10bc 15c0 603e
000002e0: 3e9b 3fbe 8bb8 023f 0b02 c13d 2249 85bd
000002f0: 57f2 b73e 8fea 5fbe ddc2 96be 176f a53e
00000300: cff3 223e bde8 39be 88c4 0cbc e3f7 1d3e
00000310: 5028 0bbe b403 cf3d 6ee6 083e c797 b43d
00000320: 34e1 c43c bfec dabd 8077 183e 3769 82bd
00000330: bea7 d93b 2ea0 87bd f44d 61be 21df d0bd
00000340: e423 38be 7531 06be 0b4d 2cbe 46be 4a3e
00000350: ae00 66be 98ec 9d3c 4bcf 043e 4424 60be
00000360: 6430 75be 4667 233e da10 f33d 6fb6 afbd
00000370: 6f17 c43c 39a1 52be b065 92be 9ade 4ebe
00000380: c782 b6bd c900 91be 7dfc 103c 6d50 6dbe
00000390: 3d9b 25be f82e 2dbe 6e3a 64bb 7ecb 333e
000003a0: 6ad8 9fbe 4521 443e e7cc 7fbd ea2f 62be
000003b0: 879b 423c ff09 053e 8572 24be eaaa 1c3e
000003c0: f369 0a3e e960 8fbe a001 4dbd ac6e 23be
000003d0: 2724 7fbe d208 7ebe 93fe 24bd 6c95 033d
000003e0: d190 61be 82ab b0bd cee1 1b3e 88a5 953a
000003f0: 2537 afbd d18a 9abc 49b2 22be 55d1 063e

fcoutput.bias f4 [10]
-0.13221975 0.15646653 0.047409803 -0.043890093 0.017232971 0.008363118 -0.008753247 0.11117453
-0.055156205 -0.06397552
00000000: 9d64 07be c338 203e c830 423d 19c6 33bd
00000010: 292c 8d3c 7605 093c c769 0fbc 79af e33d
00000020: 79eb 61bd 9905 83bd
