SimpleNeuralNetwork/models/NNOneHiddenLayerlr0.001batch64epochs100.pth (torch, 409552 bytes, 4 tensors)

fc1.weight f4 [128, 784]
000000 aa 75 5f bc a5 62 b8 3b ee eb e8 3b 37 73 ab bb
       -0.013638893 0.0056269937 0.007108203 -0.0052322405
000010 4a 97 a1 bb 87 8c 87 bc d0 1b 93 3c c3 23 93 bc
       -0.004931365 -0.0165465 0.017957598 -0.017961388
000020 fc 27 06 bd 61 0c 30 bc c5 c0 4f bc 1c 9d 2e 3c
       -0.032752976 -0.010745139 -0.012680237 0.010657575
000030 78 a8 b0 bb 57 74 92 bc b1 e5 d0 3d 3b 85 82 3d
       -0.005391177 -0.01787774 0.1020006 0.06373068
000040 51 fc e3 3c d0 5c 98 bc 31 29 c6 3c 03 17 d2 bc
       0.027830275 -0.018598944 0.024189563 -0.025645738
000050 ca d2 0e bb e5 43 81 3c d6 d8 04 bd b5 a6 c7 bc
       -0.002179312 0.015779445 -0.032433353 -0.024371484
000060 b7 f1 ca b9 4a 47 6c 3c 33 fb 6b bc 67 8b b4 bc
       -0.00038708534 0.0144212935 -0.014403152 -0.022039128
000070 25 b6 8c 3b 13 1e e9 bc 2e a4 bd bc 67 d1 c6 bc
       0.0042941743 -0.028456723 -0.023149576 -0.024269773
000080 35 15 22 bd ab 05 29 bd 50 14 27 bd 6b 69 d2 bc
       -0.039571006 -0.04126517 -0.040790856 -0.025685033
000090 0e 7a 29 3b bb 9a 85 bc e0 b8 2c be 7d 78 99 be
       0.0025860104 -0.016309133 -0.16867399 -0.29974738
0000a0 ec a6 14 bf f5 e8 bc be db 09 08 be bf 9b a8 bd
       -0.580672 -0.36896482 -0.1328501 -0.08232831
0000b0 a4 30 07 bd bf 16 6e be 33 49 65 be 46 1c 67 be
       -0.03300537 -0.23250864 -0.22391205 -0.22569379
0000c0 9d fd 91 be fd f3 3e be 28 b8 b3 bc fd 4c 64 bc
       -0.28513804 -0.18647762 -0.021938398 -0.013934371
0000d0 5e a3 ab 3c ea 50 8b 3c 25 ea 0a 3c 85 69 1a bc
       0.020951923 0.017006356 0.008478676 -0.009424572
0000e0 77 5e 0b 3d b8 c7 61 bc 51 c6 c9 3c e1 ba c9 bd
       0.034025636 -0.013780527 0.024630697 -0.098500974
0000f0 89 f0 5a be 71 cc 83 be 2e 90 4c bd 16 39 c3 be
       -0.2138082 -0.25741914 -0.049942188 -0.3812949
000100 62 13 87 be 32 3a 78 bc 28 c4 bf 3e e8 c2 17 3e
       -0.26381975 -0.015150594 0.37454343 0.14820445
000110 70 0e 98 3e e2 98 db 3e 43 5e ae 3e b2 aa 50 3e
       0.29698515 0.42890078 0.3405629 0.20377615
000120 3c 46 03 bd 60 38 e1 be c9 dc d9 be 84 0c 7f be
       -0.032049403 -0.43988323 -0.42551258 -0.24907118
000130 ac 7e 05 be af 75 c2 be 9c 9c c0 be 43 00 b9 3d
       -0.13036603 -0.3798041 -0.37619483 0.09033253
000140 9f d0 14 be 2b f3 2d 3d 73 93 2e 3c 45 64 cd 3c
       -0.14532708 0.04246823 0.010655272 0.025072226
000150 27 f0 95 3c 91 83 e1 bc 20 09 cf 3e ac 07 4b 3f
       0.01830299 -0.027528556 0.4043665 0.7930858
000160 e3 df 6a 3f b0 99 b5 be 41 3b 34 3e f6 dd 9f 3e
       0.91747874 -0.35468817 0.17600729 0.3122403
000170 b9 83 51 3f a9 b0 33 3f ac c6 6e 3f dc 2d 86 3e
       0.8184162 0.70191437 0.932719 0.26206863
000180 98 ef 15 3f d8 08 4b 3e 75 b0 77 3e 86 a4 04 3f
       0.58568716 0.19827592 0.24188407 0.5181354
000190 bb ff 06 3f c8 ca ab 3e 2d f4 8f 3e 63 e1 42 3e
       0.52733964 0.33553147 0.2811598 0.1903129
0001a0 0e 5d 6c 3e 06 b7 9e be ae 69 14 be 83 a8 f3 3d
       0.23082373 -0.3099901 -0.14493439 0.118973754
0001b0 80 9b 41 3f 04 72 55 bf cd 93 4f be 8e 8a ca 3c
       0.756279 -0.833771 -0.20271225 0.024724271
0001c0 a5 d4 0c bd 07 30 b1 bc bc a5 00 3f 14 4c 66 3f
       -0.03438248 -0.021629347 0.5025289 0.89959836
0001d0 b1 14 ca bd 32 eb 0d bd aa 43 fc 3d 96 25 14 3f
       -0.09867228 -0.034648128 0.123175934 0.5786985
0001e0 36 3d cd 3e d0 93 49 3f 99 44 6d 3f d8 35 3c 3f
       0.40085763 0.7874117 0.92682797 0.7351966
0001f0 f7 ac 07 3f 49 33 07 3f 82 fb 42 3f 3d 88 22 3f
       0.529983 0.5281263 0.7616502 0.63489133
000200 1f a2 c7 3e 12 a2 0c 3e 18 57 4d 3e 70 46 a1 3e
       0.38990876 0.137337 0.20052755 0.31499052
000210 af 8f 1a 3f f2 11 23 3e 8a 77 93 be f4 e3 f9 bd
       0.60375494 0.15924814 -0.2880214 -0.12201682
000220 a0 52 19 3f a1 83 b3 3e d8 72 00 3f 0d 25 c1 bd
       0.598917 0.35061362 0.5017524 -0.09430895
000230 0e f5 07 3d dc 10 3a 3b 27 33 9c 3e 57 47 7b 3f
       0.033192687 0.0028391397 0.30507776 0.9815573
000240 c7 3b b0 be af 9e 7e bd 5a bb d9 bd 3e 89 cb 3d
       -0.34420606 -0.06216305 -0.106314376 0.09938286
000250 c2 d8 08 3e bd 8a c1 3e 3c 5e 21 3f 67 24 38 3f
       0.13363937 0.3780116 0.63034415 0.71930546
000260 01 d2 97 3e d7 37 c5 3e 91 81 30 3e 3f 9b ea 3e
       0.29652408 0.38519165 0.17236926 0.45821568
000270 fd 5b fa 3e a9 2d bf 3e 0e 16 51 3e 82 c9 ad bd
       0.48898306 0.37339523 0.2041857 -0.084857
000280 7d 04 33 3e 98 2b 93 3e f4 14 2a 3d f4 7b dd bd
       0.17482181 0.28744197 0.04152389 -0.10814658
000290 1b 69 6c be f9 0d 1d bf ad e6 e7 bd ad ec c2 bd
       -0.2308697 -0.61349446 -0.11323295 -0.095177986
0002a0 f7 2f 92 bc d1 32 9c 3d 06 be 68 bd c1 d1 59 be
       -0.017845137 0.0762688 -0.056821845 -0.21271421
0002b0 9a 5a 1d bf 33 89 d3 be f9 37 04 bc 49 9a 57 bd
       -0.6146637 -0.41315612 -0.008069986 -0.052637372
0002c0 11 6c 31 bd 06 8b a5 3d eb 7a a8 3e 44 f5 73 3e
       -0.04331595 0.08083157 0.3290628 0.2382403
0002d0 ea d1 e1 3d 7f 62 32 3b 46 22 bd 3d e4 dd 8e 3d
       0.11026366 0.0027219353 0.09235053 0.06975916
0002e0 ad 0b 56 3e 59 f3 95 3e 86 9a bd 3e 18 c1 9c bd
       0.20902891 0.29287222 0.37031955 -0.07654017
0002f0 1b 98 b3 bd 5d 64 1d 3e de dd 2d bc 29 5b b2 bd
       -0.08769246 0.15370317 -0.010611979 -0.08708794
000300 a4 2a cc 3d f7 4b ea be 7b db 28 3e b9 ef 0d be
       0.099690706 -0.45761082 0.16489975 -0.13860978
000310 bd 30 8c 3c bf 06 8a 3d a4 5c 95 bd 4b a9 13 be
       0.017113084 0.06739568 -0.072930604 -0.14420049
000320 0c c4 b6 bd 56 eb 43 bd 50 b2 f5 3d 63 f2 48 be
       -0.08924112 -0.047831856 0.11996901 -0.19623713
000330 68 bd 4c bd 5d 7f 5d be c6 ac 01 bd 6d b0 56 bd
       -0.04998532 -0.21630616 -0.03165891 -0.052414346
000340 58 f8 d7 bd ba 3b a0 be 7e c7 57 be b1 66 95 be
       -0.10545415 -0.31295568 -0.21072194 -0.2917991
000350 59 fa 0a bc 8c 78 e3 3c 7d 6e 2d be 15 c7 03 3d
       -0.008482539 0.027767442 -0.16936679 0.03217228
000360 a9 18 83 bd af df 80 3d 9b e4 73 3d b1 3e bb 3d
       -0.06401188 0.06292664 0.059544187 0.09142817
000370 a5 bf 19 be a2 e3 f6 be ec be 9a bc 31 4f 85 bd
       -0.15014513 -0.48220545 -0.018889867 -0.06509245
000380 e1 81 c2 be 53 ae ff 3d a4 bf 0e bf 41 23 ea be
       -0.37989715 0.124844216 -0.5576117 -0.45730022
000390 fd ee 17 bf 83 2e 97 3d 8f c8 8f be 37 17 04 bf
       -0.5934904 0.07381918 -0.28082702 -0.51597923
0003a0 aa 6e e0 bd 6f db 04 be ae a3 75 be cd 5f 08 bd
       -0.109586075 -0.12974332 -0.2398822 -0.033294488
0003b0 86 6d 05 bd e4 9a 73 bd aa 0f 06 bd a5 e7 15 3e
       -0.032575153 -0.059473887 -0.032729782 0.14639147
0003c0 08 02 d7 be 12 6a 5b be 30 45 15 be e5 87 82 3d
       -0.41993737 -0.21427181 -0.14577174 0.06373576
0003d0 9a 26 94 bd ca d6 88 bd 4e fb 00 3e 6a ad cd 3d
       -0.07233925 -0.06681593 0.12595865 0.10042842
0003e0 bb e9 82 be ac 24 4f 3c 33 dc 4c be 80 3a 48 3e
       -0.25568947 0.012643021 -0.20005874 0.19553566
0003f0 13 6b 83 3c 16 c7 ce 3d 01 ed 4b be b8 ad ee be
       0.016042268 0.100965664 -0.19914629 -0.46616912

fc1.bias f4 [128]
000000 37 62 8a be 49 c4 5b 3e 08 8a ca bd b3 a2 43 3d
       -0.27028057 0.21461596 -0.098896086 0.047762584
000010 ed 11 45 3e a6 a6 00 be 08 50 84 be d7 ff ad bd
       0.1924512 -0.12563571 -0.2584231 -0.08496063
000020 20 72 23 be df 05 fa 3c 8f 62 76 be db c9 cf 3d
       -0.15961504 0.030520378 -0.24061035 0.10145923
000030 75 ee aa 3e 9e 49 db 3e 78 50 0a 3d 4f 76 26 bd
       0.33385053 0.42829603 0.033768147 -0.04064017
000040 e0 57 65 bd 17 84 38 3e 3e 04 85 3e 68 5b 83 3e
       -0.055992007 0.18019138 0.259798 0.25655675
000050 b6 0c 88 be 08 c3 21 3e 08 d4 ce 3e 9f a2 98 bd
       -0.26572198 0.15797055 0.40396142 -0.074528925
000060 b7 1e 78 bd a1 0d 10 be 92 45 bb 3e bc 42 b2 bd
       -0.060576167 -0.14067699 0.36576515 -0.08704135
000070 c5 ae f9 3e 7c e1 f8 3d 52 aa 0d bd 51 d0 02 3c
       0.4876615 0.12152383 -0.03458626 0.007984237
000080 5c b2 13 bb 44 f4 83 3d fe e7 8e bd 30 3f 12 be
       -0.002253673 0.06443074 -0.06977843 -0.14281917
000090 37 a7 80 3e 6e 76 5b be 9b 49 68 bd 3b 79 a2 be
       0.25127575 -0.21431896 -0.05671082 -0.31733117
0000a0 ce 26 7c be b1 a8 1a 3e 43 83 a6 bd de 8d 7f 3e
       -0.24624178 0.15103413 -0.08130505 0.24956462
0000b0 c5 74 7e 3d 21 e9 a6 bd e6 98 38 3e 38 63 ac be
       0.06212308 -0.081499346 0.18027076 -0.33669448
0000c0 92 e2 81 3e c8 2a bf be fd c0 ef bc 3a 99 ce be
       0.25368172 -0.37337327 -0.029266829 -0.40351278
0000d0 8a 27 75 bd ea 60 b1 3d fd 57 db 3d 22 36 b3 bb
       -0.05985216 0.08661063 0.10710142 -0.0054690996
0000e0 90 7d 02 be e4 55 4f 3e a0 b7 15 3e 74 1f c5 bb
       -0.12743211 0.20247608 0.14620829 -0.0060157124
0000f0 35 be 4e be 00 65 b3 be 66 59 b6 bd 7b 5e d6 bd
       -0.20189746 -0.35037994 -0.0890377 -0.104672395
000100 c9 95 f9 bc 79 4a a4 bd af 80 81 be 49 f3 81 3d
       -0.030466931 -0.08022017 -0.2529349 0.06345231
000110 69 76 47 bd 24 32 41 3e 3c bd 29 3e 6b c4 22 be
       -0.04869691 0.18866783 0.16576093 -0.1589524
000120 05 3c 76 3d ec 88 a2 bd 98 86 40 be 5f 71 ec bd
       0.060115833 -0.07936272 -0.18801343 -0.11545061
000130 5f 9e 20 3f 97 00 47 3e 90 e0 6f 3d e4 61 06 3e
       0.62741655 0.19433819 0.05856377 0.1312328
000140 ee 4e 23 3d be 3d e7 3d 96 16 75 be d6 e7 5d be
       0.039870195 0.11291073 -0.23934397 -0.2167047
000150 cf 32 41 bd af fc 1c bc 19 55 cb bd fd 62 af 3e
       -0.047167595 -0.009581729 -0.099283405 0.3425521
000160 a1 78 42 bd bb c8 15 bf a1 90 8b 3e 99 21 59 3c
       -0.047478322 -0.58509415 0.2725878 0.013252639
000170 59 f8 63 bd a5 7f 9c bd 7f 5a 15 be 5e c2 93 be
       -0.055656765 -0.07641534 -0.14585303 -0.28859228
000180 36 69 9a 3e e1 44 80 be b8 d8 78 3d 16 0a 6b be
       0.30158395 -0.2505255 0.060753554 -0.22953066
000190 1e 9a 08 be af f8 c1 3c f3 94 72 bb 7d d9 cc 3d
       -0.13340041 0.023678152 -0.003701505 0.1000242
0001a0 0f fb 9e bc 40 bd dc 3e 3a cd a0 bd 35 d8 63 3b
       -0.019406823 0.43113136 -0.07851644 0.003476632
0001b0 6a 78 71 be 48 e7 b2 3b 26 b2 72 3e be c3 29 3e
       -0.2358109 0.0054597 0.2370077 0.16578576
0001c0 48 77 73 3e 98 da 73 be 08 0c a0 3e bc ca 00 3e
       0.23775971 -0.23813856 0.3125918 0.12577337
0001d0 b1 32 a9 3d 2c 9f 3a bd 7e 7f 39 be 95 62 ee bd
       0.08261622 -0.045561954 -0.1811504 -0.11639897
0001e0 e9 27 04 3e a2 54 09 3e 45 b1 d3 bb d2 a5 e1 3e
       0.1290585 0.13411191 -0.006460341 0.44071823
0001f0 ba 75 53 3d d6 83 bc 3d e8 6f 9b bd 92 de 67 be
       0.051625945 0.09204833 -0.07589704 -0.22643498

fcoutput.weight f4 [10, 128]
000000 9c f2 a2 bf 34 c9 23 3b 79 41 a6 3e 19 ad f2 bf
       -1.2730289 0.0024991753 0.32471827 -1.8959075
000010 fa 44 31 3e 1e 30 b0 3c 9c b4 e1 3e 0a c0 3e 3e
       0.17311469 0.021507319 0.44083107 0.18627945
000020 6d 3d e4 3e 16 65 b1 bf a1 db f0 bd b3 6e e4 3e
       0.44578114 -1.3858974 -0.11760641 0.44615707
000030 05 63 a7 bf 2c 3d 1b 3e dc 43 ce bf 0a 30 5c bd
       -1.3077093 0.15160054 -1.6114459 -0.05375675
000040 72 bb 67 3e b4 83 61 3d ad ba 81 bd ad a6 02 c0
       0.22630098 0.055057243 -0.06334434 -2.041423
000050 a2 c2 18 3d ed ef 26 3d 0c f4 f4 bb 79 70 12 bf
       0.03729499 0.040756155 -0.0074753817 -0.5720287
000060 a2 5e 6d bf fb ae 2a be 44 2d a8 be 8c be f3 be
       -0.92722523 -0.16668312 -0.32847035 -0.47606313
000070 80 83 0c be 07 1f ac 3e c4 f8 28 3e 59 95 1b bf
       -0.13722038 0.33617422 0.16501147 -0.6077476
000080 b2 ae b9 3e 33 64 63 3e 52 b0 1f 3e 02 fa b4 3e
       0.36266094 0.22206192 0.15594605 0.3534699
000090 36 dd a1 3d 87 d4 cd 3c 86 34 1c 3e 44 5f f6 bf
       0.07903521 0.025125755 0.15254411 -1.9247823
0000a0 b5 8b 30 be b8 8a 82 3e 64 53 e8 3d 0d 3c d1 be
       -0.17240794 0.2549646 0.113440305 -0.40866128
0000b0 55 77 b1 bc b8 eb bf bc f8 bf b1 bf a8 ec 40 bf
       -0.021663347 -0.02342783 -1.3886709 -0.7536111
0000c0 dc 54 a2 bf c5 e5 bd 3e 60 2d 7e bf b4 b9 9c 3d
       -1.2682147 0.37089363 -0.99287987 0.076526076
0000d0 88 6d 0c be 60 7d 9a be ce 0d d0 3e 64 fe 38 bf
       -0.13713658 -0.3017378 0.40635532 -0.7226317
0000e0 07 43 06 bf 57 93 31 3e 0c ec d0 be 84 e6 c3 3a
       -0.52446026 0.17341362 -0.4080509 0.0014946018
0000f0 46 27 42 3e de eb b5 bd af 57 92 be 02 95 59 bf
       0.18960294 -0.08882879 -0.28582522 -0.8499299
000100 4f c5 13 3f bf d7 21 3e 7e 29 8f 3e bd 44 b4 3e
       0.57722944 0.15804957 0.27961344 0.35208693
000110 c7 a8 8f 3e e9 57 23 bf 87 d8 08 bf 4b 47 8c bf
       0.28058454 -0.63806015 -0.53455395 -1.0959257
000120 4e 82 55 bf e3 99 b5 3d a2 93 26 3e 02 59 d2 bc
       -0.83401954 0.08867242 0.16267255 -0.025677208
000130 64 70 0f 3f 00 1d 8c 3e b9 bc 98 3e 10 db 97 bf
       0.5603087 0.27365875 0.29831484 -1.1863728
000140 d2 a7 9b bd 2f dc 3d bb f5 9a 37 bf 48 6f 88 3e
       -0.076003686 -0.002897035 -0.7172082 0.266474
000150 ea 86 71 bd d4 f6 d4 3c 5f 15 39 bf 66 a0 4d bf
       -0.058966555 0.025996603 -0.72298235 -0.80322874
000160 36 d7 0a 3f 70 cd c4 3d b4 68 94 be 58 6e c6 3e
       0.54234636 0.096094966 -0.28986132 0.3875606
000170 85 53 ac bf f0 ec 2c 3f 44 4c 61 be 07 31 2f be
       -1.3462988 0.6754904 -0.2200175 -0.17108546
000180 b1 d9 31 3e 10 75 2f 3e bd 5b fb bd ca 24 94 3d
       0.17368199 0.171345 -0.12273357 0.072335795
000190 e4 da 1d 3e ea be 06 3d b0 f1 8d bd 7a 69 ba 3e
       0.15415531 0.032896914 -0.06930864 0.36408597
0001a0 c0 39 9c 3d 7a c8 7a be 63 6e d2 3c 91 36 8f bf
       0.076282024 -0.24490538 0.025687402 -1.1188527
0001b0 bd ef b3 bf fc d4 b9 3e 13 c6 50 3e f6 b8 58 bf
       -1.4057537 0.36295307 0.2038806 -0.8465723
0001c0 e1 97 9c bf dc 1a 2b 3f 43 4d c8 3e d4 c6 fa bc
       -1.223385 0.6683786 0.39121446 -0.030612387
0001d0 9c f3 f9 3d 90 c6 5e be 6c 9e 32 bf 0b 00 3c bd
       0.12204668 -0.21755433 -0.6977298 -0.04589848
0001e0 f4 64 35 3e 6b 05 03 3e e5 d8 e0 3e a5 59 b9 be
       0.17714292 0.12795036 0.43915477 -0.36201206
0001f0 ad 28 a4 3e 60 a1 43 3e 81 6e 9b 3e ae aa ae 3d
       0.32062283 0.19104528 0.30357745 0.08528648
000200 56 65 06 3e 62 00 18 bf f4 c0 86 bf 4c e0 f9 bb
       0.13124594 -0.59375584 -1.0527635 -0.007625615
000210 83 de a4 bf cf b6 39 bf eb b3 af be cf a1 6d bf
       -1.2880405 -0.7254457 -0.34316954 -0.92825025
000220 58 5f 3e bf 16 d8 85 bf 40 a9 22 3e 46 96 97 3f
       -0.74364233 -1.0456569 0.15884876 1.1842735
000230 bc 7e e7 be 75 15 fe bf 79 85 d7 3d 9b 7c f5 3c
       -0.45213878 -1.9850298 0.10523505 0.029966643
000240 9c 15 4b 3e 80 79 db be d7 ad 4a bf f1 65 11 bc
       0.19832462 -0.42866135 -0.7917151 -0.008874402
000250 2e f8 24 bf 3a 80 37 bf dc 15 21 3e 8f 36 75 3f
       -0.6444119 -0.71680033 0.15730995 0.95786375
000260 a6 a5 cc 3e 8a e9 90 be 3e ba c6 3e d3 b9 10 3e
       0.3997013 -0.28303176 0.38813967 0.14133386
000270 54 a6 0e bf ab d0 a5 3e 27 63 e9 3e 0d 2c 78 3f
       -0.55722547 0.32385764 0.4558346 0.96942216
000280 0f 75 ba be a8 5a ac 3d 4e c9 0c 3f 87 30 f4 be
       -0.36417434 0.08415729 0.54994667 -0.47693273
000290 a7 b2 2a bd 23 30 c2 be 93 5e 93 3e 93 b2 6e 3e
       -0.041674282 -0.3792735 0.28783092 0.23310308
0002a0 bf eb 8a 3e f8 db 05 bd 9c 0d 21 3f 48 de 65 3e
       0.27132985 -0.03268048 0.6291139 0.22448075
0002b0 79 0a 17 be 94 f2 14 be d6 8e 48 bf 99 ef a1 3e
       -0.14750089 -0.14545661 -0.7834295 0.3162811
0002c0 99 07 3f 3f 1e 29 10 bf fe ba 51 3f 98 f3 23 3d
       0.7462097 -0.5631274 0.8192595 0.04002723
0002d0 5b 64 a6 bd f4 e5 bd bf e2 2f 21 3f 99 37 ce bd
       -0.0812461 -1.4835801 0.6296369 -0.10069198
0002e0 c1 4c d2 3e 97 26 dd bc fd 52 4b be c2 c2 78 3d
       0.41074184 -0.02699594 -0.19855876 0.06073261
0002f0 e2 09 56 bf 36 cd e8 3e 19 b5 31 3d 65 82 7a bf
       -0.8360883 0.45469064 0.0433856 -0.97855216
000300 20 7d 5a bf d6 c5 a6 bf b6 e1 36 bf 99 af a3 3d
       -0.85347176 -1.3029125 -0.7143816 0.07992477
000310 b6 a2 be be 9e fa 09 bf b3 94 01 3d 4f 3b 14 3e
       -0.37233514 -0.53898036 0.03163595 0.1447575
000320 b3 9d 1d 3e 9d 2a 9e 3e e5 b5 78 3e ba 81 b7 be
       0.15392189 0.30891886 0.24288137 -0.3584116
000330 c3 b3 e8 3e 7a fb c5 bf 8c 1d 90 3e a2 17 41 3f
       0.45449647 -1.546737 0.28147542 0.75426686
000340 c6 a9 29 3d 12 5f 8d 3e 93 ac 88 3e f0 a6 29 bf
       0.041421674 0.27611595 0.26694164 -0.6627035
000350 4f 5b 25 be 5a 7f 1d 3c f1 ca 82 3f 75 ec 41 3e
       -0.16148113 0.0096128825 1.0218183 0.18937857
000360 b9 ce 25 be f6 60 3a 3e 5d 83 7d bf 6e 50 a4 bf
       -0.1619214 0.1820105 -0.9902857 -1.2837045
000370 52 56 85 3c a4 95 1a be ba 27 7c 3d ae 38 28 bd
       0.016276512 -0.15096146 0.061561324 -0.04106968
000380 66 74 d4 be 8b 24 97 bf 2b 8f a9 bf 52 18 c1 3e
       -0.41495055 -1.1808027 -1.3246816 0.37713867
000390 0f 42 0c bf 1f 8f 86 bd e0 50 62 bd a1 33 70 bf
       -0.547883 -0.06570267 -0.05525291 -0.9382878
0003a0 2c df 55 3d f6 74 f8 3e 1f 6c b5 3d 8a d8 e0 3d
       0.052214786 0.48526734 0.08858513 0.109788015
0003b0 32 72 08 3d 6c 8f 46 3e 55 88 94 be cf b2 1c 3e
       0.03331203 0.19390649 -0.29010263 0.15302585
0003c0 5c 08 72 bf a0 d3 16 3f fb 89 eb 3e ff 0f 14 be
       -0.94544005 0.58916664 0.46003708 -0.14459227
0003d0 66 79 e1 3c 2d 0f 5f be 59 f0 43 be 31 37 9a 3e
       0.027523708 -0.21783133 -0.19134654 0.30120233
0003e0 d8 95 95 3e 20 fe d9 bd 3e 2e 8b bf cb db ff 3e
       0.29215884 -0.106441736 -1.0873487 0.49972376
0003f0 50 94 40 3e da 7d bb be 93 02 e9 3e 32 b1 51 be
       0.18806577 -0.36619455 0.45509776 -0.20477751

fcoutput.bias f4 [10]
000000 63 fc 66 bd 88 2b 60 be f6 54 12 be 58 20 3d be
       -0.05639304 -0.21891606 -0.14290223 -0.1846937
000010 dc 0e 95 3e 28 64 0a 3e 73 ab 2f bd 1f 36 90 be
       0.291129 0.13514769 -0.042888116 -0.2816629
000020 33 15 a9 3e f3 5f 5c bc
       0.33023986 -0.01345061
