SimpleNeuralNetwork/models/NNOneHiddenLayerlr0.001batch64epochs50.pth (torch, 409544 bytes, 4 tensors)

fc1.weight f4 [128, 784]
00000000: dc5e fcba e122 db3c a511 9cbb 2579 393a
00000010: 05f8 27bc 9ca1 22bc 655c 0cbc b72b 163b
00000020: 01a8 70bb 45ea 3b3c 052a b73c 4114 c63b
00000030: c42c 193d 9176 ca3c 53ce 143e d69a c93c
00000040: 7ed3 99bc e3ce dd3c e82e ffbc f5c0 c5bc
00000050: b8cd 69ba f129 cb3c ec54 a63c fc7c 69bc
00000060: 25d0 41bc e541 c73b 5c03 c43b ee5c 0e3d
00000070: 856e 49bc 5c51 b3bb b76b 28ba 25cb 2d3c
00000080: 80f3 db3c cfe3 3a39 aa6b 7a3d 6c3d ff3d
00000090: cf8d 153e faf5 d73d 861c 183e 5100 1dbe
000000a0: eaa2 dcbd dabf 99be 2778 72be ba33 c93d
000000b0: f1a5 bebd 68f4 713d 2157 b83e 8719 193e
000000c0: d5a4 913e f166 763d 1e4a 9b3d 5a9b 813d
000000d0: 9325 58bc a4b3 00bd 9cb7 8fbb fe7d ffbc
000000e0: fe5c 8a3c 1c5e 0a3d 192f b13d 2ff1 3c3e
000000f0: cddb 343e ff3b 853d abc5 163e 1d9a dd3d
00000100: e266 223d b1a8 173f 13b0 fa3e 72a1 1d3f
00000110: 87ad 773d 41cf 8b3d 3c51 0d3d 4975 df3e
00000120: 5da3 9a3e e7c9 293e 1307 723e 5d29 fd3e
00000130: cf84 ec3d 339d 01be 23d7 e8bd 8fd5 643d
00000140: ff30 653e dc3e 903d 0719 c03c 57e5 44bc
00000150: 0060 0b3d 3a42 d0bc e2ec 64bd 23cd 09bd
00000160: 961c f9bd 1802 5a3e c1ef bc3e b8e4 9b3e
00000170: 1d4f 22be 1206 1c3d 008d 093e f109 1d3e
00000180: bfb2 6cbe b24e b5bd a914 183e 3679 083e
00000190: 44a5 8e3e fce8 19bc c68c 7abd feab 62bc
000001a0: 0073 c9be 6f95 00be 4543 c03d 01b3 db3e
000001b0: 4e9b 023e 0f4f 02bf 11b1 6dbe 01dd b83b
000001c0: 8581 86bc a6e8 1e3c 3d37 be3d eb51 e1be
000001d0: 528e 193e 8bd4 193f 1c05 a23e 395a c73d
000001e0: 6af5 f03e 3979 143d bd54 52be 7411 83be
000001f0: 13a5 cebd a521 c0bd 2f42 25be 4680 0bbe
00000200: 54b3 593e df07 75be e77d 9bbe 4679 243e
00000210: a203 bf3d 6d17 ee3d 89a6 ce3d bf5c f4bd
00000220: d626 22be 796f babe c6ef 1abd ec0a 103f
00000230: 4a39 09bd 25e9 aeba ee20 bd3e 1104 03bf
00000240: 466d c73e 61f9 3e3f d3c1 f93e 0af9 3d3f
00000250: 4299 573f 4c0e 543e cbe8 bebe a5f7 ffbe
00000260: 71ae 54be 16d0 4b3d 9964 3d3e 5351 3e3e
00000270: d098 d43e aae8 4f3e 2380 ec3d 1bb4 153e
00000280: 5733 613d 8ba7 ac3e e544 253e 03ba 4c3e
00000290: 0eb3 3e3e 0f89 443e 7b08 043f 9c14 033f
000002a0: b721 2d3a 94d7 083e 5495 ebbe 1082 773d
000002b0: 7383 9f3e 6e34 fb3e de08 ff3e b688 ee3e
000002c0: dab1 ac3e 35a7 70bd 4e19 94be 6817 a0be
000002d0: 7dd6 cabe 27e8 80be 1850 6ebe 5b0a 783e
000002e0: 5e42 003e d5e8 39be 378f d3bd 2f7a 853e
000002f0: 665e 213d 3aec fc3c 42ed 443d bf99 19bd
00000300: ff43 b4bd fee7 e23d 19bc 0ebd 851e ce3e
00000310: 21a5 e4bc 697c e73e e6c7 0dbc 56fb 933e
00000320: 9682 d83e 4b66 8e3e 9e9a 3d3e 9cc8 063f
00000330: 9ab1 aabe e32c a3be 3ff3 12be a6fe 64be
00000340: 6caf 82be 1f6d 3cbe e6ca 023e 64f8 8d3e
00000350: 594c ef3d 2989 c3bc a68b 32be 186c cfbc
00000360: bce3 0f3e 7465 843d 556d 3b3e 66ea 173c
00000370: aca2 8bbd b044 9fbc db26 e83d 9a73 c43e
00000380: 04f5 b93c b4a9 edbd d8de 1cbe 4479 9c3b
00000390: e32d e93e 7742 583e 8f48 be3d c0cb a73e
000003a0: a0c4 e3be 01e1 d1bd 4636 bb3c 2f5d 1fbd
000003b0: 342b 08bc e0b3 a6bc 62ee 733e a1a7 ed3e
000003c0: efc8 733d a1e5 823b cddb c7be 2793 2ebd
000003d0: 1516 513d 198a bbbd 6a09 003d 6c5f 2b3e
000003e0: c7d3 81be 8d28 c8be dfc4 de3e 5f5b 6f3d
000003f0: cee8 2dbc f040 b63d ad73 c23e 4860 c43e
-0.0019254345 0.02675003 -0.0047628456 0.0007075242 -0.010252004 -0.009926226 -0.00856695 0.002291424
-0.0036721232 0.011469428 0.022358904 0.006044895 0.037396207 0.02471474 0.14531831 0.024609964
-0.018777605 0.02707619 -0.031150296 -0.02413986 -0.0008918899 0.024800273 0.020304166 -0.01425099
-0.011829411 0.0060808533 0.005981846 0.034756593 -0.012294416 -0.0054723453 -0.0006424742 0.010607515
0.026849508 0.00017823208 0.061137833 0.12462887 0.14604877 0.10544963 0.14854631 -0.15332152
-0.10773261 -0.30029184 -0.23678647 0.09824319 -0.093089946 0.059070975 0.36003974 0.14951144
0.2844607 0.060156766 0.07582496 0.06328459 -0.013192552 -0.03142132 -0.0043859016 -0.031188007
0.016890045 0.033781156 0.08651561 0.18451379 0.17661972 0.06505584 0.14723842 0.108204104
0.039648898 0.5924178 0.4896246 0.6157447 0.060468223 0.0682664 0.0345013 0.4364417
0.3020276 0.16580926 0.23635511 0.4944562 0.11548769 -0.12657623 -0.11369159 0.055867728
0.22381972 0.070432395 0.023449434 -0.0120175695 0.0340271 -0.025422204 -0.05588997 -0.0336429
-0.121636555 0.21289861 0.36901668 0.30447936 -0.15850492 0.038091727 0.13432693 0.15335824
-0.23115061 -0.088529006 0.14851631 0.13327488 0.27860463 -0.009393927 -0.06116941 -0.013834951
-0.3934555 -0.12557004 0.09387831 0.42910007 0.12754557 -0.50901884 -0.23212077 0.00564158
-0.016419182 0.009699022 0.092878796 -0.4400781 0.14995697 0.6008994 0.31644523 0.097340055
0.47062236 0.03624842 -0.20540138 -0.25599253 -0.10090079 -0.09381417 -0.16138528 -0.13623151
0.21259815 -0.23928784 -0.30369493 0.16061887 0.09326865 0.11625562 0.10090358 -0.119317524
-0.15835127 -0.36413172 -0.037826322 0.56266665 -0.0335019 -0.0013344629 0.36939186 -0.5117808
0.38950557 0.7459927 0.4878069 0.7420813 0.8421823 0.20708579 -0.37286982 -0.49993625
-0.20769669 0.049758993 0.18495406 0.1858571 0.41522837 0.20303598 0.11547878 0.14619486
0.054980602 0.33721575 0.16139562 0.19992833 0.18622991 0.19192909 0.5157544 0.5120332
0.000660445 0.13363487 -0.46012366 0.06042677 0.31154975 0.49063438 0.49811453 0.46588677
0.3372944 -0.05875321 -0.28925556 -0.31267858 -0.39616767 -0.25177118 -0.23272741 0.242227
0.12525317 -0.18155225 -0.103300504 0.2606978 0.039396666 0.03087436 0.04807783 -0.03750014
-0.08802032 0.11079405 -0.034847353 0.4025766 -0.02791077 0.45212105 -0.0086536165 0.28902692
0.4228713 0.27812418 0.18516013 0.52649856 -0.33338624 -0.31870183 -0.14350604 -0.22362766
-0.2552446 -0.18401001 0.12772712 0.2772857 0.11684484 -0.023869114 -0.17436084 -0.025320098
0.14051718 0.06464663 0.18303426 0.009272194 -0.068181366 -0.019441932 0.11335536 0.38369447
0.02269984 -0.11604634 -0.15319383 0.004775198 0.4554282 0.21119104 0.09291183 0.32772636
-0.4448595 -0.10247994 0.022853028 -0.038907226 -0.008311082 -0.020349443 0.23821405 0.46416953
0.059517797 0.003994659 -0.39034882 -0.042620804 0.05104645 -0.091571994 0.031258978 0.1673562
-0.25356886 -0.39093438 0.43509576 0.058436748 -0.010614587 0.088991046 0.3797888 0.38354707

fc1.bias f4 [128]
00000000: f124 42be a15d 0f3e 5110 e73d 5830 da3e
00000010: 0ec8 64bd b336 373e a9fd 3e3e 37b5 ccbd
00000020: 61f2 583e 06c8 36be b10d 083e 6743 15be
00000030: 911e 7abe 01f1 f03d 33af 9c3d 46a4 86bd
00000040: e3d6 40be 98c2 223d 395c 343e e9f3 c73e
00000050: fb0d 54be c0aa 033e b558 ea3c 83e6 72bc
00000060: 7249 61bd d7a3 01be 1911 80be c3b3 0a3e
00000070: 49ca 883e 4bc9 bb3e c5c7 413e 8ba2 643e
00000080: 8a00 31bd 2edf 56bd d803 5abe cd90 c33d
00000090: 5865 8bbd 2e64 aa3e e4b0 e3bc 6001 0abe
000000a0: ba4b 253e 6a01 ea3d d4b5 a43c 43eb 2e3e
000000b0: dbf0 b8be a099 343e 529f d5bd efc4 4a3c
000000c0: c053 a73e 186c 903e 8193 89be fdd3 823e
000000d0: e715 0abd 7ebf 21bb 4349 b63b ee02 e5bd
000000e0: 3c31 2abe 9565 053d 728f 5c3d b14d 723e
000000f0: d76d 4ebe 9ec3 fcbd 363a debd 841d e73b
00000100: 57b6 663e 7054 39be aca1 7e3e bd86 e73c
00000110: 90ee 503d 8bf5 52bd 34da 95be 48d7 413e
00000120: 6188 c73e f062 f23d dd4b 8b3d 3ef3 4bbb
00000130: 0e62 3d3e 8539 92be 0dae 363e ff0f 84bc
00000140: 05f8 f0bd fad4 adbd 58d5 febd 1e9c 483e
00000150: 66da 26be fe12 0dbd 8070 71bd c1a1 f53d
00000160: e561 52bd df49 30be 99e8 483e 8813 883e
00000170: 562d 45be 4b41 213d 0024 903d 7cb3 d53c
00000180: d641 2cbd 5fda 5f3c b1e2 1c3e 699c 703e
00000190: 48c4 8ebc 02d4 a7bd cca6 ad3e 0839 d03c
000001a0: dc6d a53d 8953 003e 47db adbb 2ae2 063e
000001b0: ae68 7aba 57e0 87be 68e8 8ebe 707c 1bbe
000001c0: b8d7 033d e6d1 423e 3bd2 47be 6d93 6ebe
000001d0: ca0f ae3e 7271 43bd 5fc5 043e 64c8 b13e
000001e0: 85c4 e93c f0be 3abc f6b2 37b9 35d3 9dbd
000001f0: 4d5f 693d 625b 933e 7dab b3be d2cc a6bc
-0.18959405 0.1400056 0.11282409 0.42615008 -0.05585485 0.1789196 0.18651451 -0.099955015
0.2118621 -0.1784974 0.13286473 -0.14576493 -0.24425723 0.11764718 0.07650604 -0.065743014
-0.18831973 0.03973636 0.17613305 0.39053276 -0.20708458 0.12858105 0.028606752 -0.014825466
-0.055001684 -0.12660156 -0.25013044 0.13545136 0.2671683 0.36677012 0.18923862 0.2232763
-0.043213405 -0.052458934 -0.21290529 0.09549103 -0.06806439 0.33279556 -0.027794309 -0.13477087
0.16142169 0.11426051 0.020106234 0.17081933 -0.36121258 0.17636728 -0.104307786 0.012376054
0.32681084 0.2820747 -0.2687035 0.2555236 -0.033712294 -0.0024680789 0.0055629327 -0.111821994
-0.16620344 0.03256758 0.053847738 0.2366245 -0.20159088 -0.123419985 -0.108509466 0.007053079
0.22530495 -0.18098617 0.2486636 0.02826249 0.05100876 -0.0515037 -0.29268038 0.1892978
0.38971236 0.11835277 0.06801579 -0.0031120325 0.18494436 -0.2855951 0.17839833 -0.016120909
-0.11766056 -0.08487888 -0.12443036 0.19590804 -0.1629425 -0.03444194 -0.05894518 0.11993743
-0.05136289 -0.1721568 0.19619979 0.265774 -0.19255576 0.03936891 0.070381165 0.026086561
-0.042054974 0.013662904 0.15320851 0.23497166 -0.017427579 -0.08194734 0.33916318 0.02541782
0.08077595 0.12531866 -0.005305681 0.13172212 -0.00095523417 -0.26538345 -0.27911687 -0.15184188
0.032188147 0.19025382 -0.1951379 -0.23298426 0.3399642 -0.04771561 0.12965916 0.34723198
0.02853609 -0.011398062 -0.00017518908 -0.077063 0.05697565 0.28780657 -0.35091773 -0.020361338

fcoutput.weight f4 [10, 128]
00000000: 5bc8 58be 183f 833d 4859 173e 94d8 a83d
00000010: e48c 6c3e 5a6e d13e a45c 4dbf a9d5 aa3e
00000020: 923c 7b3e 6ceb 893e 4157 7e3d 10a1 bc3d
00000030: 36eb 1ebf 5a47 ea3d 6571 963d e30a 603e
00000040: bed2 1b3e 7efb a9bf ef84 9fbe 41ff 47bf
00000050: 08e1 ad3e 0d6e 67bf 4590 38be 8928 d03e
00000060: 9b1b a03e 9354 3abf 9850 dbba 9172 da3c
00000070: c52e 833e 02fd 93bf 6718 96be 545a b23d
00000080: b4d2 c2be f4b9 b9be 9b9b f9be f7dd 8ebf
00000090: 00df 3ebf 66f6 1d3e 6e9a 90bf 59b4 e4be
000000a0: 23de 273e d6a3 263e 29c6 f3be 0d3e c5bd
000000b0: 817a 823e 023b 703e e4e6 26be 36f2 57be
000000c0: f1a2 f13d 3fd9 c7be 70f1 61bd f680 29bf
000000d0: 8ecc a8bd bfaa 4bbe 108a 373e 8971 403e
000000e0: 3944 2bbf 0019 f7bd 6ac7 2d3f 1671 853e
000000f0: c51d 923e 6545 413e 2b83 57bf b06a f43e
00000100: 2927 f0bc 4776 85be 0af2 613c 1116 83bf
00000110: 909f 2abd 6c26 8bbf 5b90 973e 1c41 1ebf
00000120: f198 c6be 28e2 303e 327f 24bf 3db0 97bc
00000130: 7df2 e83e 46ea 4b3d 2ad1 063f a356 3abe
00000140: 7639 c7bf 7750 153e 4bc3 cebf 3988 dfbe
00000150: 9d19 65bb c583 aabd 5e04 cfbc 6a0e 603e
00000160: bdfc 93bf a0a5 eabc cd99 39be fdc2 7dbf
00000170: 9940 8a3e 510d 86bf 3342 36bd 01d0 17bf
00000180: dde1 e9bd e379 38bd 7ae0 783e d226 d63e
00000190: 517f d7bd 5222 3e3c a0c7 f3bd fb1f 07bf
000001a0: d65c 963e 483d c93d ca9a 0dbf b7da 393e
000001b0: b058 3b3d 5c5a ad3e 397b 0e3e 4772 483e
000001c0: d466 a4bf a995 acbc 4fc1 973d 8228 db3d
000001d0: 0bc8 a8bd 7094 d2be 8d06 633e 533c 863e
000001e0: b0ef aa3e 3a7c eebe 3550 fabc 2d5f 863d
000001f0: 3e0b 8abf 2948 8b3e b0f7 993e 14bb d43d
00000200: bde4 643d dddb 7d3d 16f9 3c3d 9bba 033e
00000210: b0ad a1be ced7 363f 1056 173e ff69 a1bd
00000220: 6af9 843f 1ab2 9f3e 6691 84bf d094 263d
00000230: 2ac8 7b3e 388d 4b3d 6820 883e 70ca 36bf
00000240: 8a85 853e 5872 053e 4b31 6b3e 5fc4 75be
00000250: 61c6 3dbf 5291 aebb 8984 45be b578 86bf
00000260: e3a8 3e3e 1fd5 613e 4aa4 88bd 5595 803f
00000270: e47b c9bd d95c 823f 32ae 0e3e c863 e7bf
00000280: 96d3 d33d 83af 5e3e 3d14 ce3e 6977 503a
00000290: e324 b7be e0bf 353f 989f 74bd 6485 783e
000002a0: a4b3 5a3e 082a 03bf 1669 07bd 04e8 86be
000002b0: 7027 913e 686a 52bf 75e4 6abf b467 d13e
000002c0: c29b 54bf aba3 8cbf 3097 5a3e 6553 8f3b
000002d0: 6fdd 0d3d 8f4c 11be 6576 d33e f99f a6bf
000002e0: 6f9e cb3d 93c8 4cbf 18fe 5a3e bf55 003f
000002f0: 8c53 be3d 5be0 bbbe 9393 883e 9c60 8bbe
00000300: 8168 a2bf 22c7 d83d 317a 43bf 1cf7 8e3e
00000310: 23fe 4ebe e812 48be 6702 153e 51d7 5bbf
00000320: b756 6a3d 6b12 22bf 2c1c fc3d a25a c7bc
00000330: 09b1 88be fa78 68bd d6c9 80be 9a52 703e
00000340: 25f9 953d 84d6 34be dff9 643e edc8 663e
00000350: 3992 f63c 91e0 b4bd 099d 61be 11ba 31bf
00000360: 8c81 693e 0fe2 fd3e d613 2fbf 106c cd3e
00000370: daa7 86bf bd42 5dbe 5cae 16bf 8211 f73d
00000380: 86b7 05bf 06f0 463d 5fc0 a73d d907 abbe
00000390: 6bcb ab3d e4e1 81be 1dda 44bd b923 c0be
000003a0: 0708 63bf c1dc 743e 0be9 02bf eb29 833e
000003b0: 1f41 87bf 1559 ec3e 1a5c 0bbe 65b5 34be
000003c0: 5e10 53be d574 a63e d945 6fbf 81e4 8b3e
000003d0: d01b a63e 0b2f dc3c 09d7 29bd ba03 d13e
000003e0: 2370 94bf 142a 4a3e aabe 2b3e c48d 34bc
000003f0: da52 9a3e 2c10 e8be 90de 38be 2385 5cbf
-0.2117018 0.064085186 0.14780152 0.08244434 0.2310062 0.40904504 -0.80219483 0.33366135
0.24534824 0.26937425 0.06209493 0.09210408 -0.62077653 0.114393905 0.07345847 0.21879153
0.1521711 -1.3279874 -0.31156108 -0.7812386 0.33960748 -0.904023 -0.18023784 0.40655926
0.3127106 -0.727853 -0.0016732393 0.026665958 0.2562162 -1.1561587 -0.29315493 0.08708635
-0.3805138 -0.36274683 -0.4875153 -1.1161488 -0.7455902 0.15426025 -1.1297128 -0.44668844
0.16393332 0.16273436 -0.47612122 -0.09630976 0.25484088 0.2346001 -0.16299015 -0.2108849
0.11798657 -0.39032933 -0.055161893 -0.66212404 -0.08242141 -0.19889353 0.1792376 0.1879331
-0.66900975 -0.12065315 0.67882407 0.2606284 0.28538337 0.18874128 -0.8418452 0.47737646
-0.029315548 -0.260668 0.013790617 -1.0241109 -0.041656077 -1.08711 0.29602322 -0.618181
-0.3878856 0.17273772 -0.64256585 -0.018516654 0.45497504 0.049783967 0.5266291 -0.18197112
-1.5564411 0.14581476 -1.6153349 -0.43658617 -0.0034957894 -0.08325914 -0.025270637 0.21880499
-1.1561505 -0.02864343 -0.18125077 -0.99125654 0.2700241 -1.0472814 -0.044496726 -0.59301764
-0.11420033 -0.045038115 0.24304381 0.41826493 -0.105223306 0.011604862 -0.1190331 -0.52783173
0.29367703 0.098261416 -0.55314314 0.1814984 0.045738876 0.33858 0.13914193 0.19574843
-1.2843881 -0.021067457 0.074099176 0.107010856 -0.0824128 -0.41128874 0.22170468 0.262179
0.33385992 -0.46579152 -0.030555824 0.06561122 -1.0784681 0.2720349 0.30071783 0.10387245
0.055882204 0.061977256 0.046135984 0.12864153 -0.31577826 0.7142304 0.14778924 -0.07881545
1.0388615 0.31190568 -1.0356872 0.040669262 0.24588075 0.049695224 0.26587224 -0.71402645
0.26078445 0.130319 0.22968023 -0.24000691 -0.7413083 -0.005327382 -0.1928884 -1.0505587
0.18619113 0.22053955 -0.06671961 1.0045573 -0.098380834 1.0184585 0.13933638 -1.8077326
0.10343091 0.2174664 0.40249816 0.0007952364 -0.3577033 0.70995903 -0.059722513 0.24269634
0.2135759 -0.5123601 -0.033059202 -0.2634889 0.283504 -0.82193613 -0.9175485 0.40899432
-0.8305017 -1.0987448 0.21346736 0.004373955 0.034635004 -0.14189361 0.41301265 -1.301757
0.09942328 -0.7999355 0.21385992 0.5013084 0.09293279 -0.36694607 0.2667509 -0.27222145
-1.2688142 0.105848566 -0.76358324 0.27922904 -0.20214133 -0.19538462 0.14551698 -0.8587542
0.057211604 -0.63309354 0.12310061 -0.02433521 -0.26697567 -0.056755997 -0.2515399 0.2346901
0.07322911 -0.17659956 0.22360943 0.22537585 0.030099021 -0.08831895 -0.2203256 -0.6942454
0.22803324 0.49586532 -0.6838964 0.40121508 -1.0519974 -0.2160749 -0.588598 0.12063886
-0.5223316 0.048568748 0.08190989 -0.33404425 0.08388408 -0.25367653 -0.04805957 -0.37527254
-0.88684124 0.23912336 -0.51136845 0.25617918 -1.0566748 0.46161714 -0.13609353 -0.17647322
-0.20611712 0.3251101 -0.93465954 0.27322772 0.32443094 0.0268779 -0.04146484 0.40823156
-1.1596721 0.19742614 0.16771951 -0.011020128 0.30141336 -0.45324838 -0.18053651 -0.8614065

fcoutput.bias f4 [10]
00000000: 55f0 19bd 6444 f2bd 604b 2abe 9ff4 7ebe
00000010: d5fb 283e fbb1 503d e2f7 45bc 2759 46be
00000020: 229d 813e ff8c d13d
-0.037582714 -0.11829451 -0.16630316 -0.24898003 0.16502316 0.050950985 -0.012083026 -0.19369946
0.25315195 0.10231971
